…
INFO:root:client_idx = 98, local_sample_number = 619
Files already downloaded and verified
download = True
Files already downloaded and verified
INFO:root:client_idx = 98, batch_num_train_local = 61, batch_num_test_local = 1000
INFO:root:client_idx = 99, local_sample_number = 509
download = True
Files already downloaded and verified
download = True
Files already downloaded and verified
INFO:root:client_idx = 99, batch_num_train_local = 50, batch_num_test_local = 1000
INFO:root:create_model. model_name = mobilenet, output_dim = 10
INFO:root:class_num = 10
INFO:root:MobileNet(
  (stem): Sequential(
    (0): BasicConv2d(
      (conv): Conv2d(3, 32, kernel_size=(3, 3), stride=(1, 1), padding=(1, 1), bias=False)
      (bn): BatchNorm2d(32, eps=1e-05, momentum=0.1, affine=True, track_running_stats=True)
      (relu): ReLU(inplace=True)
    )
    (1): DepthSeperabelConv2d(
      (depthwise): Sequential(
        (0): Conv2d(32, 32, kernel_size=(3, 3), stride=(1, 1), padding=(1, 1), groups=32, bias=False)
        (1): BatchNorm2d(32, eps=1e-05, momentum=0.1, affine=True, track_running_stats=True)
        (2): ReLU(inplace=True)
      )
      (pointwise): Sequential(
        (0): Conv2d(32, 64, kernel_size=(1, 1), stride=(1, 1))
        (1): BatchNorm2d(64, eps=1e-05, momentum=0.1, affine=True, track_running_stats=True)
        (2): ReLU(inplace=True)
      )
    )
  )
  (conv1): Sequential(
    (0): DepthSeperabelConv2d(
      (depthwise): Sequential(
        (0): Conv2d(64, 64, kernel_size=(3, 3), stride=(2, 2), padding=(1, 1), groups=64, bias=False)
        (1): BatchNorm2d(64, eps=1e-05, momentum=0.1, affine=True, track_running_stats=True)
        (2): ReLU(inplace=True)
      )
      (pointwise): Sequential(
        (0): Conv2d(64, 128, kernel_size=(1, 1), stride=(1, 1))
        (1): BatchNorm2d(128, eps=1e-05, momentum=0.1, affine=True, track_running_stats=True)
        (2): ReLU(inplace=True)
      )
    )
    (1): DepthSeperabelConv2d(
      (depthwise): Sequential(
        (0): Conv2d(128, 128, kernel_size=(3, 3), stride=(1, 1), padding=(1, 1), groups=128, bias=False)
        (1): BatchNorm2d(128, eps=1e-05, momentum=0.1, affine=True, track_running_stats=True)
        (2): ReLU(inplace=True)
      )
      (pointwise): Sequential(
        (0): Conv2d(128, 128, kernel_size=(1, 1), stride=(1, 1))
        (1): BatchNorm2d(128, eps=1e-05, momentum=0.1, affine=True, track_running_stats=True)
        (2): ReLU(inplace=True)
      )
    )
  )
  (conv2): Sequential(
    (0): DepthSeperabelConv2d(
      (depthwise): Sequential(
        (0): Conv2d(128, 128, kernel_size=(3, 3), stride=(2, 2), padding=(1, 1), groups=128, bias=False)
        (1): BatchNorm2d(128, eps=1e-05, momentum=0.1, affine=True, track_running_stats=True)
        (2): ReLU(inplace=True)
      )
      (pointwise): Sequential(
        (0): Conv2d(128, 256, kernel_size=(1, 1), stride=(1, 1))
        (1): BatchNorm2d(256, eps=1e-05, momentum=0.1, affine=True, track_running_stats=True)
        (2): ReLU(inplace=True)
      )
    )
    (1): DepthSeperabelConv2d(
      (depthwise): Sequential(
        (0): Conv2d(256, 256, kernel_size=(3, 3), stride=(1, 1), padding=(1, 1), groups=256, bias=False)
        (1): BatchNorm2d(256, eps=1e-05, momentum=0.1, affine=True, track_running_stats=True)
        (2): ReLU(inplace=True)
      )
      (pointwise): Sequential(
        (0): Conv2d(256, 256, kernel_size=(1, 1), stride=(1, 1))
        (1): BatchNorm2d(256, eps=1e-05, momentum=0.1, affine=True, track_running_stats=True)
        (2): ReLU(inplace=True)
      )
    )
  )
  (conv3): Sequential(
    (0): DepthSeperabelConv2d(
      (depthwise): Sequential(
        (0): Conv2d(256, 256, kernel_size=(3, 3), stride=(2, 2), padding=(1, 1), groups=256, bias=False)
        (1): BatchNorm2d(256, eps=1e-05, momentum=0.1, affine=True, track_running_stats=True)
        (2): ReLU(inplace=True)
      )
      (pointwise): Sequential(
        (0): Conv2d(256, 512, kernel_size=(1, 1), stride=(1, 1))
        (1): BatchNorm2d(512, eps=1e-05, momentum=0.1, affine=True, track_running_stats=True)
        (2): ReLU(inplace=True)
      )
    )
    (1): DepthSeperabelConv2d(
      (depthwise): Sequential(
        (0): Conv2d(512, 512, kernel_size=(3, 3), stride=(1, 1), padding=(1, 1), groups=512, bias=False)
        (1): BatchNorm2d(512, eps=1e-05, momentum=0.1, affine=True, track_running_stats=True)
        (2): ReLU(inplace=True)
      )
      (pointwise): Sequential(
        (0): Conv2d(512, 512, kernel_size=(1, 1), stride=(1, 1))
        (1): BatchNorm2d(512, eps=1e-05, momentum=0.1, affine=True, track_running_stats=True)
        (2): ReLU(inplace=True)
      )
    )
    (2): DepthSeperabelConv2d(
      (depthwise): Sequential(
        (0): Conv2d(512, 512, kernel_size=(3, 3), stride=(1, 1), padding=(1, 1), groups=512, bias=False)
        (1): BatchNorm2d(512, eps=1e-05, momentum=0.1, affine=True, track_running_stats=True)
        (2): ReLU(inplace=True)
      )
      (pointwise): Sequential(
        (0): Conv2d(512, 512, kernel_size=(1, 1), stride=(1, 1))
        (1): BatchNorm2d(512, eps=1e-05, momentum=0.1, affine=True, track_running_stats=True)
        (2): ReLU(inplace=True)
      )
    )
    (3): DepthSeperabelConv2d(
      (depthwise): Sequential(
        (0): Conv2d(512, 512, kernel_size=(3, 3), stride=(1, 1), padding=(1, 1), groups=512, bias=False)
        (1): BatchNorm2d(512, eps=1e-05, momentum=0.1, affine=True, track_running_stats=True)
        (2): ReLU(inplace=True)
      )
      (pointwise): Sequential(
        (0): Conv2d(512, 512, kernel_size=(1, 1), stride=(1, 1))
        (1): BatchNorm2d(512, eps=1e-05, momentum=0.1, affine=True, track_running_stats=True)
        (2): ReLU(inplace=True)
      )
    )
    (4): DepthSeperabelConv2d(
      (depthwise): Sequential(
        (0): Conv2d(512, 512, kernel_size=(3, 3), stride=(1, 1), padding=(1, 1), groups=512, bias=False)
        (1): BatchNorm2d(512, eps=1e-05, momentum=0.1, affine=True, track_running_stats=True)
        (2): ReLU(inplace=True)
      )
      (pointwise): Sequential(
        (0): Conv2d(512, 512, kernel_size=(1, 1), stride=(1, 1))
        (1): BatchNorm2d(512, eps=1e-05, momentum=0.1, affine=True, track_running_stats=True)
        (2): ReLU(inplace=True)
      )
    )
    (5): DepthSeperabelConv2d(
      (depthwise): Sequential(
        (0): Conv2d(512, 512, kernel_size=(3, 3), stride=(1, 1), padding=(1, 1), groups=512, bias=False)
        (1): BatchNorm2d(512, eps=1e-05, momentum=0.1, affine=True, track_running_stats=True)
        (2): ReLU(inplace=True)
      )
      (pointwise): Sequential(
        (0): Conv2d(512, 512, kernel_size=(1, 1), stride=(1, 1))
        (1): BatchNorm2d(512, eps=1e-05, momentum=0.1, affine=True, track_running_stats=True)
        (2): ReLU(inplace=True)
      )
    )
  )
  (conv4): Sequential(
    (0): DepthSeperabelConv2d(
      (depthwise): Sequential(
        (0): Conv2d(512, 512, kernel_size=(3, 3), stride=(2, 2), padding=(1, 1), groups=512, bias=False)
        (1): BatchNorm2d(512, eps=1e-05, momentum=0.1, affine=True, track_running_stats=True)
        (2): ReLU(inplace=True)
      )
      (pointwise): Sequential(
        (0): Conv2d(512, 1024, kernel_size=(1, 1), stride=(1, 1))
        (1): BatchNorm2d(1024, eps=1e-05, momentum=0.1, affine=True, track_running_stats=True)
        (2): ReLU(inplace=True)
      )
    )
    (1): DepthSeperabelConv2d(
      (depthwise): Sequential(
        (0): Conv2d(1024, 1024, kernel_size=(3, 3), stride=(1, 1), padding=(1, 1), groups=1024, bias=False)
        (1): BatchNorm2d(1024, eps=1e-05, momentum=0.1, affine=True, track_running_stats=True)
        (2): ReLU(inplace=True)
      )
      (pointwise): Sequential(
        (0): Conv2d(1024, 1024, kernel_size=(1, 1), stride=(1, 1))
        (1): BatchNorm2d(1024, eps=1e-05, momentum=0.1, affine=True, track_running_stats=True)
        (2): ReLU(inplace=True)
      )
    )
  )
  (fc): Linear(in_features=1024, out_features=10, bias=True)
  (avg): AdaptiveAvgPool2d(output_size=1)
)
INFO:root:############setup_clients (START)#############
INFO:root:self.local_sample_number = 521
INFO:root:self.local_sample_number = 772
INFO:root:self.local_sample_number = 176
INFO:root:self.local_sample_number = 418
INFO:root:self.local_sample_number = 569
INFO:root:self.local_sample_number = 583
INFO:root:self.local_sample_number = 474
…
